chatbot-deployment-main/data.pth (torch, 4010 bytes, 5 tensors)

l1.weight f4 [8, 28]
00000000: 14fb 38be 0a5a bebd fc18 483d d071 b3bc
00000010: c68f 29be 075e 0d3e 6325 333e a06c 84bd
00000020: d89f 4c3d 826f cb3d 58ad 01be 0a3a 8e3d
00000030: 8ac5 b13d ac69 173d 6298 8f3d f0bd 44bd
00000040: 2a14 823d 5a51 d93d d38c 94bd 7881 0ebe
00000050: 517c 0cbe 5a17 f73d baf1 eb3d 9ebd 83bd
00000060: 3cb5 e6bd d33d 31be d437 033d ab4c debd
00000070: 0843 fdbd 3aa5 a93d 5ac1 b6bd 92a3 bd3d
00000080: 1484 f9bd b8d3 613d 9843 1abe b3f7 0c3e
00000090: bca3 0a3d 8892 f83c dcf1 6bbd b5d3 213e
000000a0: f435 2cbe 5846 0bbe 7f66 3b3e b033 edbd
000000b0: 0006 373a 3970 2cbe 3d98 0d3e 9eb0 803d
000000c0: 891e e1bd 8404 39be bddd 32be 5b68 d6bd
000000d0: f853 dc3c d0af 713d f040 2fbc 8746 f5bd
000000e0: 0edf c53d bef7 8b3d 865f ce3d 0337 143e
000000f0: 92bb b23d 8c46 20bd e0de 3b3d a122 363e
00000100: 9ed8 dc3d 75be c1bd 30a4 1a3c 9859 4d3d
00000110: a8be e4bc ee7a 97bd 083d 40bd 770b 353e
00000120: 3a3f f0bd 1df8 e9bd a663 94bd 188d 3a3d
00000130: 6083 543c e6e7 e43d 52c0 c83d 00ba 0dba
00000140: 5cb8 6d3d 6ef4 fa3d 9a11 933d ea74 c83d
00000150: 2082 80bc d08a b43c 7bcf 093e 6653 8dbd
00000160: fcbf 2bbe 51eb 39be ecfa 39be 25d3 40be
00000170: 2418 8fbd 1096 1fbe 5500 303e 1885 b43c
00000180: 10c5 cfbd 10a7 273c ce81 8cbd 2eb3 8a3d
00000190: 892f 133e 80df eabc 25ce cfbd 3dcc 05be
000001a0: 2418 babd bb04 86bd 9ecd 21be fda0 d0bd
000001b0: 3203 cc3d 056f 033e 304b c63c 821b 34be
000001c0: 41ba e6bd 07bf 373e 115f 99bd 3877 aabc
000001d0: 547d 043d cd2d 0c3e 3c6e 35bd 81cb 3fbe
000001e0: 79be 24be bc7b 74bd 481e a5bc 70bb 07bc
000001f0: 00ad cabd 5044 8ebc 1bcd 213e 2066 e73b
00000200: 1294 b43d b87c b33c 380a 74bd 549d 36be
00000210: c0f5 55bc ecb0 1ebd d0c4 d5bc 8d6c 34be
00000220: fca8 713d 7843 e2bc 7828 263d da34 f63d
00000230: 1cd4 09bd 5e8e 19be 6412 03bd 88d2 443d
00000240: 38b4 be3c d1f8 12be 3df6 103e 7890 fd3c
00000250: 862c df3d 042e 95bd b08f 23bc 6b3f 403e
00000260: 70e4 273d a5e7 0f3e 775f 183e 7a6b 2fbe
00000270: e861 023d cc38 253d feff ff3d 9c80 0abe
00000280: 3061 433c 42f1 ef3d 00a8 72bb de03 ac3d
00000290: 141d 34be 4605 ba3d c0bd 93bb 0bac bcbd
000002a0: 73f6 273e 679b 1f3e 9568 12be c22c d13d
000002b0: 1a4a b13d b456 59bd e566 203e 3b45 1ebe
000002c0: 9f6a 1e3e 4019 403c 6359 c8bd ccee 40be
000002d0: 55a4 edbd 275f c1bd b00d 3c3c 1913 c5bd
000002e0: 7066 90bc 4065 66bb 703e 8d3c 1659 9e3d
000002f0: 3842 b1bc 360c 34be 6c05 503d 20cf 9b3c
00000300: 703c 0ebd bfce d5bd 853e 1abe 37b4 2d3e
00000310: 9565 103e f62e a4bd d94d 36be 0e0c 81bd
00000320: 901f 19be 0190 193e 662a 913d 2e8d a9bd
00000330: 5630 ad3d 279d 22be 5833 833c 929b 04be
00000340: 0802 8abc 80e6 ba3a 6a40 06be 1441 b4bd
00000350: 500f 3bbc a1b7 03be 2c00 2bbd 41d6 1d3e
00000360: 1795 323e b085 813c d699 8a3d 5012 ffbc
00000370: b67f dc3d 20da 76bc 1253 c5bd 16c3 c83d
-0.18064529 -0.09294517 0.048851952 -0.021904856 -0.16558751 0.138054 0.1749473 -0.06466031
0.049957126 0.09933378 -0.12663782 0.06944664 0.08680256 0.03696601 0.070114866 -0.0480327
0.06351502 0.1061122 -0.072534226 -0.13916576 -0.13719298 0.12065001 0.11520715 -0.06432651
-0.112650365 -0.1730874 0.032035664 -0.10854467 -0.12366301 0.082834676 -0.08923598 0.09259714
-0.12183395 0.05513355 -0.15064847 0.13766365 0.033847556 0.030343309 -0.057603702 0.15803416
-0.16817456 -0.13601053 0.18300818 -0.11582124 0.000698179 -0.16839685 0.13827606 0.06283687
-0.10992152 -0.18068129 -0.17467399 -0.10469123 0.026895508 0.05900556 -0.010696635 -0.11976343
0.09661685 0.068343624 0.100768134 0.1447411 0.087271824 -0.03912978 0.045866847 0.17786647
0.10783504 -0.09460155 0.009438559 0.05013427 -0.027922943 -0.07396494 -0.046933204 0.17680155
-0.117308095 -0.11424277 -0.07245569 0.045544714 0.012970775 0.111770436 0.09802307 -0.00054064393
0.058037147 0.122536525 0.071810916 0.097879246 -0.015687048 0.022038847 0.13458054 -0.069006726
-0.16772455 -0.18156172 -0.18162125 -0.18830545 -0.06987026 -0.15584588 0.17187627 0.02203612
-0.101450086 0.010232702 -0.06860696 0.06772457 0.14373602 -0.028671026 -0.10146741 -0.13066192
-0.09086636 -0.06543871 -0.15801093 -0.10186956 0.09961547 0.1283532 0.024205774 -0.17588618
-0.11265994 0.17943965 -0.074888356 -0.020808801 0.032346085 0.13689347 -0.04429458 -0.18729974
-0.16088285 -0.059688315 -0.02015604 -0.008284435 -0.098962784 -0.017366558 0.15800898 0.007061735
0.08817305 0.021910056 -0.059580058 -0.17833453 -0.01305908 -0.038742945 -0.026094824 -0.17619534
0.058999047 -0.027620062 0.040565938 0.120217994 -0.03364955 -0.14995715 -0.03199996 0.04805234
0.023279294 -0.14352728 0.14156432 0.030952677 0.10897164 -0.072841674 -0.009982988 0.18774192
0.04098934 0.14053209 0.14880167 -0.17130843 0.031831652 0.04033737 0.124999985 -0.13525623
0.011925027 0.11715938 -0.0037026405 0.08399175 -0.17589217 0.09083037 -0.004508704 -0.09212502
0.16402607 0.15586625 -0.14297707 0.10213615 0.08656712 -0.053061202 0.15664251 -0.15456097
0.1547036 0.01172477 -0.09782674 -0.18841094 -0.116036095 -0.09441977 0.011477873 -0.09622783
-0.017626971 -0.0035155565 0.017241687 0.077318355 -0.02163802 -0.17582783 0.05078642 0.019019663
-0.034725606 -0.10439824 -0.15062912 0.16963278 0.1410125 -0.080167696 -0.17803134 -0.063011274
-0.14953446 0.1499634 0.07088165 -0.08278881 0.08456485 -0.15880261 0.016015694 -0.1294997
-0.016846672 0.0014259368 -0.1311051 -0.08801475 -0.011417225 -0.12863018 -0.04174821 0.15413763
0.17439686 0.015810817 0.06767623 -0.031136662 0.107665464 -0.0150666535 -0.09634985 0.09802835

l1.bias f4 [8]
00000000: 6331 3cbe b1f3 0a3e 1469 2d3d 9dfc 15be
00000010: 6233 a73d 6026 d53b 0a58 e43d 0ce0 1fbd
-0.18378215 0.13569523 0.04233654 -0.14647146 0.08164097 0.006504819 0.111496046 -0.039032027

l2.weight f4 [8, 8]
00000000: c509 903e 6790 ab3e d7cf a53e a6e2 6d3e
00000010: 808a 39bc 02bc 6f3e 0016 f33c e6e7 6c3e
00000020: 9f21 92be 2df6 9b3e 17bc 863e 1e22 0fbe
00000030: b255 9bbe b6ee 4a3e a402 e9bd be22 523e
00000040: 206f 02bc 802a f5bb c31c a43e 5252 2c3e
00000050: 2fed adbe 8675 7a3e 66a3 6a3e e0be b4bc
00000060: d994 943e 94e7 d33d 01d9 31be 1eb5 7dbe
00000070: 296b 94be 34b1 063e 738d 27be c8ba a53d
00000080: baf8 1a3e 00c8 d13d 2ac4 193e 0020 cb3b
00000090: 3be5 8b3e 2e97 06be dcd2 8bbe b07e c2bd
000000a0: 82b7 203e 969d 9dbe 2133 23be 630d 96be
000000b0: 2267 ebbd 1eb8 56be 0072 d5bb b037 ee3c
000000c0: aea4 633e 7e02 99be 28aa 18be 25ac 923e
000000d0: c84f ee3d c31c a33e 8844 b4bd 5f35 25be
000000e0: 9673 653e 70a7 87bc b256 2c3e eee0 7cbe
000000f0: f808 9fbe a0be 1f3c 4876 77be 7aac 3cbe
0.28132454 0.33508608 0.32385132 0.23230991 -0.011324525 0.23411563 0.029673576 0.23135337
-0.28541276 0.30461255 0.26315376 -0.13977858 -0.30338818 0.19817623 -0.11377457 0.20521066
-0.007961065 -0.007481873 0.32053193 0.16828278 -0.3397002 0.24458894 0.22913894 -0.022063673
0.29019812 0.103469044 -0.17367937 -0.24776122 -0.28988007 0.13153535 -0.16362552 0.08092266
0.15133944 0.10243225 0.15016237 0.006198883 0.27323326 -0.13143608 -0.2730931 -0.0949682
0.15695003 -0.3078429 -0.15937473 -0.29307088 -0.114942804 -0.20968673 -0.006513834 0.029079288
0.22230789 -0.29884714 -0.1490866 0.2864696 0.11636311 0.3185788 -0.08802134 -0.1613364
0.22407374 -0.016559333 0.16829947 -0.24695179 -0.3106153 0.009750038 -0.24166214 -0.1842517

l2.bias f4 [8]
00000000: de07 50be 9141 8d3e 8ad4 01be 154f 9f3e
00000010: 7666 f5bd 7b59 8b3e 3ab2 9dbe 0730 943e
-0.20315501 0.27589086 -0.12678733 0.31115022 -0.119824335 0.27216706 -0.3080004 0.28942892

l3.weight f4 [1, 8]
00000000: ea62 583e d0b8 9abe 66db 53be 6ce7 92be
00000010: fe62 0b3e 5dfa 1dbe f2de 03be 0e06 493e
0.21131483 -0.30219126 -0.20689163 -0.28692186 0.13611981 -0.15427537 -0.12878016 0.19631216
