chatbot-deployment-main/data1.pth (torch, 4020 bytes, 5 tensors)

l1.weight f4 [8, 28]
0.05702506 -0.06635724 0.15672992 -0.1627042 0.011707261 0.03706111 0.07848777 -0.060946807
0.15319161 0.018079326 -0.15632316 0.14272429 -0.11333399 -0.08444328 0.11749978 -0.08075582
-0.13743857 0.14255749 -0.016647205 0.0898038 0.009714708 -0.08919385 0.14804997 -0.01705189
-0.14538182 -0.081990965 -0.011538565 -0.15876105 0.15344034 -0.09219786 -0.11617354 0.03289929
-0.019587174 0.13059606 0.112580374 -0.01145497 -0.052064687 -0.14088123 0.00971368 -0.098297454
0.15422963 -0.1407437 -0.12805903 0.016886324 0.045412615 0.15421765 0.06634022 -0.10026473
0.07393898 -0.14966385 -0.054638 -0.13112397 -0.040832147 0.073713735 0.012862563 0.114847645
-0.14741585 -0.03754367 0.067549065 -0.11977929 0.0321099 -0.17908664 0.17887686 0.020912692
0.18692078 -0.16455552 -0.13449581 0.13265304 -0.13518232 -0.019312307 0.025170624 0.054049328
0.17481418 0.08876465 -0.14568913 0.057053015 0.0024273247 0.098238245 -0.13151696 -0.14439069
0.16761492 -0.072676785 0.020848766 0.0057254434 0.10221122 0.14516576 0.106573865 -0.10217074
0.056904852 -0.17586131 0.104413286 0.12657665 0.023196131 0.121280745 0.056571633 0.044018432
0.035344884 -0.11319012 -0.07638605 -0.12470957 0.06939407 0.0993952 -0.08099081 -0.10684799
0.088322505 0.023772597 0.12624483 0.11913265 0.021721214 0.16937335 0.18295418 0.15440248
0.16625221 -0.13095865 -0.070104666 -0.12128139 -0.068098694 -0.07646686 0.17014201 -0.14034912
-0.011962786 0.1814466 -0.18888716 -0.107043445 0.055737317 0.1818292 -0.18496291 -0.17481716
-0.028694153 0.096994594 0.13684393 -0.17261703 0.0911168 0.13234915 0.14373125 0.08735098
0.07913245 -0.12619384 -0.026988566 0.109994486 -0.10203269 0.17984958 0.1352828 -0.03886059
-0.08401774 -0.18428476 0.06459035 -0.17784086 0.08237599 -0.16849568 0.07434182 -0.05927387
-0.054191977 -0.16592354 0.16961654 0.09142394 0.0010681599 0.02136214 -0.11541458 -0.12509294
0.10179724 -0.12973809 -0.106916 -0.043147653 0.09502302 -0.15448092 -0.056040227 -0.15954089
-0.15870672 0.11534892 -0.02120088 -0.11343798 -0.1416501 0.14692931 -0.10895746 0.05201307
-0.010551602 0.13519497 -0.061331466 -0.12998174 0.17629184 -0.11583323 -0.032221302 0.009313092
-0.116388194 0.061517015 -0.06742746 -0.03319843 -0.046811476 -0.0641563 -0.08808534 -0.040926695
0.1692545 0.010894299 0.048146784 -0.12242791 -0.051884025 0.049692616 -0.006058097 0.13614391
0.06859048 0.024267793 -0.058849916 -0.10198232 -0.11493502 -0.113029994 0.016425535 -0.040086016
0.028164849 -0.120865725 -0.14728509 -0.15571767 0.110879704 0.14913897 -0.16186397 0.14594899
-0.04805793 0.13558783 0.09573223 -0.15275916 -0.02701123 0.004540384 -0.024983585 0.10500996
00000000: 1c93 693d 4ee6 87bd cf7d 203e ee9b 26be
00000010: d0cf 3f3c 64cd 173d 32be a03d 5ca3 79bd
00000020: 43de 1c3e 181b 943c 2e13 20be 5126 123e
00000030: a71b e8bd 99f0 acbd baa3 f03d 4f63 a5bd
00000040: b2bc 0cbe 97fa 113e b85f 88bc 0eeb b73d
00000050: 702a 1f3c 44ab b6bd 699a 173e 68b0 8bbc
00000060: f9de 14be e1ea a7bd 400c 3dbc 4292 22be
00000070: 771f 1d3e 3bd2 bcbd 65ec edbd 68c1 063d
00000080: 4875 a0bc f9ba 053e 8a90 e63d a0ad 3bbc
00000090: c841 55bd 2b43 10be 2026 1f3c 2d50 c9bd
000000a0: 5fee 1d3e 1e1f 10be e821 03be 3055 8a3c
000000b0: 9402 3a3d 3beb 1d3e 62dd 873d 9857 cdbd
000000c0: 526d 973d 7b41 19be 18cc 5fbd 5d45 06be
000000d0: 9c3f 27bd 3af7 963d 80bd 523c 3e35 eb3d
000000e0: 2ef4 16be 64c7 19bd 2a57 8a3d d84e f5bd
000000f0: ac85 033d 7d62 37be 7f2b 373e 1851 ab3c
00000100: 2968 3f3e 3e81 28be 45b9 09be 33d6 073e
00000110: 3c6d 0abe d834 9ebc a032 ce3c d462 5d3d
00000120: 7d02 333e 3eca b53d 882f 15be 6cb0 693d
00000130: c013 1f3b 2231 c93d 62ac 06be 27db 13be
00000140: 3fa3 2b3e 91d7 94bd 08cb aa3c 809c bb3b
00000150: 1e54 d13d 55a6 143e 6643 da3d e53e d1bd
00000160: 1015 693d fd14 34be a2d6 d53d 4f9d 013e
00000170: d005 be3c 0a62 f83d a8b7 673d ac4c 343d
00000180: ccc5 103d 39d0 e7bd 4a70 9cbd bb67 ffbd
00000190: 7a1e 8e3d b68f cb3d 83de a5bd 1ed3 dabd
000001a0: 6ee2 b43d c0be c23c 5346 013e d2fb f33d
000001b0: b0f0 b13c 3570 2d3e 5758 3b3e af1b 1e3e
000001c0: 053e 2a3e 061a 06be 0993 8fbd 6162 f8bd
000001d0: 5477 8bbd a89a 9cbd b539 2e3e aeb7 0fbe
000001e0: 90ff 43bc 23cd 393e a36b 41be 9839 dbbd
000001f0: d04c 643d 6f31 3a3e eb66 3dbe 4503 33be
00000200: 0010 ebbc 1aa5 c63d d120 0c3e 85c2 30be
00000210: 729b ba3d 8986 073e 492e 133e 12e5 b23d
00000220: 3210 a23d f538 01be 2017 ddbc ca44 e13d
00000230: 84f6 d0bd 7d2a 383e 9387 0a3e 482c 1fbd
00000240: 7e11 acbd 25b5 3cbe f247 843d ea1b 36be
00000250: beb4 a83d 228a 2cbe 8640 983d 28c9 72bd
00000260: 68f8 5dbd dce7 29be f5af 2d3e 7a3c bb3d
00000270: 8001 8c3a a8ff ae3c 7b5e ecbd 5d18 00be
00000280: 127b d03d 10da 04be c7f6 dabd 98bb 30bd
00000290: 6e9b c23d 3f30 1ebe 708a 65bd b05e 23be
000002a0: 0484 22be 0e3c ec3d 78ad adbc 2c52 e8bd
000002b0: b90c 11be a374 163e 1725 dfbd a80b 553d
000002c0: a0e0 2cbc 8d70 0a3e b436 7bbd ef19 05be
000002d0: d985 343e f939 edbd 7cfa 03bd f095 183c
000002e0: ef5c eebd 44f9 7b3d 6817 8abd 14fb 07bd
000002f0: 64bd 3fbd 6164 83bd 1666 b4bd c0a2 27bd
00000300: 0d51 2d3e 007e 323c 9035 453d 7cbb fabd
00000310: 5884 54bd 7c8a 4b3d 0083 c6bb 4f69 0b3e
00000320: 2a79 8c3d 40cd c63c 9c0c 71bd 1bdc d0bd
00000330: 0d63 ebbd 457c e7bd d88e 863c 3c31 24bd
00000340: f8b9 e63c 7388 f7bd e7d1 16be 7474 1fbe
00000350: e614 e33d e3b7 183e abbf 25be a773 153e
00000360: 64d8 44bd 89d7 0a3e 420f c43d e66c 1cbe
00000370: a846 ddbc 80c7 943b 60aa ccbc 760f d73d

l1.bias f4 [8]
-0.006535858 -0.014048457 -0.03036286 0.11564301 -0.1333918 0.00013916194 -0.16021666 0.13149081
00000000: c02a d6bb 802b 66bc 88bb f8bc 3ed6 ec3d
00000010: dc97 08be 00ec 1139 d60f 24be 87a5 063e

l2.weight f4 [8, 8]
-0.24076024 -0.26187235 -0.2747032 -0.08753824 -0.040733695 -0.21248232 0.019798607 -0.021874309
0.33738878 -0.10636106 0.057626784 0.19714686 -0.25306952 0.34133735 -0.023205668 0.256326
-0.24030283 0.0993045 -0.2056783 0.065107554 0.17574736 0.030263424 0.28261456 -0.006046802
-0.036750317 0.13162887 -0.042625815 -0.16081278 -0.25306845 -0.33187166 -0.32210007 -0.30615368
0.12496841 0.17584768 0.09382677 0.16447333 -0.07861236 -0.16914204 0.046701938 -0.19147456
0.08351159 -0.013851643 -0.039599538 -0.013216108 -0.14340827 -0.07578826 -0.30433637 -0.06954172
0.24385539 -0.20694418 -0.19009522 0.060225397 -0.27658746 -0.2699641 0.33944806 -0.29567
0.07537112 -0.1669821 0.14842996 0.08926347 -0.28381708 0.19396088 0.13408557 -0.09195849
00000000: da89 76be 2214 86be e6a5 8cbe 4047 b3bd
00000010: 60d8 26bd f794 59be b030 a23c c031 b3bc
00000020: 39be ac3e d4d3 d9bd 100a 6c3d dee0 493e
00000030: 5492 81be c5c3 ae3e d019 bebc 293d 833e
00000040: f211 76be 2860 cb3d 559d 52be 1c57 853d
00000050: 1ef7 333e 00eb f73c dbb2 903e 4024 c6bb
00000060: 8087 16bd b8c9 063e 6898 2ebd 1bac 24be
00000070: 3092 81be 15eb a9be 4dea a4be 2dc0 9cbe
00000080: 70ef ff3d 6a11 343e 4028 c03d b26b 283e
00000090: 84ff a0bd 9233 2dbe 884a 3f3d e811 44be
000000a0: 2008 ab3d 00f2 62bc 2033 22bd 6088 58bc
000000b0: 9ed9 12be e036 9bbd fad1 9bbe e46b 8ebd
000000c0: 3ab5 793e 2de9 53be 52a8 42be e8ae 763d
000000d0: df9c 8dbe bc38 8abe 23cc ad3e 0f62 97be
000000e0: 2c5c 9a3d 5bfd 2abe 06fe 173e c4cf b63d
000000f0: 7950 91be ae9d 463e ba4d 093e bc54 bcbd

l2.bias f4 [8]
-0.2878765 0.06301519 0.03876826 -0.024746448 -0.2164576 -0.23340385 -0.2420601 -0.10691598
00000000: 8c64 93be 1c0e 813d 78cb 1e3d 10b9 cabc
00000010: 10a7 5dbe 6b01 6fbe 9ade 77be c4f6 dabd

l3.weight f4 [1, 8]
-0.17360026 -0.04239407 -0.110719815 -0.31391668 0.28742513 -0.29653865 0.24085227 0.2996489
00000000: 44c4 31be 68a5 2dbd 12c1 e2bd b0b9 a0be
00000010: 6329 933e ead3 97be faa1 763e 956b 993e
