chatbot-deployment-main/data_Nego.pth (torch, 13276 bytes, 6 tensors)

l1.weight f4 [8, 212]
1.9195558 0.95535916 1.918119 0.5634468 0.4385124 1.0244336 0.6856316 0.14352661
-0.12998423 0.3197378 1.4071839 0.16240133 0.3889844 0.3156586 -0.004026742 0.656769
0.337082 -0.4152108 -1.7609879 -0.12622635 -0.9261129 0.065663256 0.32603213 0.093549766
0.32800514 -0.5789159 0.08490722 -0.08385589 -0.0047606872 -0.36394668 -0.4747747 -0.56686664
2.374638 -0.8275715 -0.2539894 -0.19886482 -0.6166891 0.16689076 -0.2234864 0.555649
0.067604475 -1.5242703 0.029569006 -0.26042932 0.17615017 -0.54988635 -0.249318 0.31294918
0.7638685 -0.08564141 0.3191202 0.4180369 -0.07642493 -0.11269781 0.94451004 0.14244345
-0.04426069 -0.24981084 0.03635832 0.16663212 0.37843886 -3.0721974 -0.299955 2.8833485
-0.09419092 3.5311954 0.6333003 -1.9820949 3.169254 -0.5708884 0.20916806 0.28876162
0.12936915 0.46825886 0.3548587 -0.34721377 2.386898 0.06006646 -0.60308295 1.5386418
-0.85605866 -0.60397255 -0.60215753 -0.60286856 0.15550269 -0.60220385 0.31023723 -0.0013422966
0.14955421 0.67954165 -0.2653661 -0.59094614 0.80485106 -0.16834435 0.20112295 -0.38962635
-0.069357745 -1.0090047 -0.94652754 1.1855443 1.5597476 0.80606776 0.81851846 -0.6021308
0.20593902 -1.7782298 1.3419354 -0.9087524 0.20900097 -0.182565 0.01847842 0.03413699
-0.48591402 -1.0296528 -0.23719874 0.95372 -0.7315493 -0.0063241445 0.12259855 -0.24969128
0.10920689 0.47579834 0.7343109 0.36353114 -0.45195416 -0.40781525 -0.7766265 0.5621757
-0.552483 0.40544286 -0.06157728 2.4337409 0.53055406 0.19355883 -0.77178335 -0.6780007
-0.1718146 0.41239306 0.39956084 0.38862154 0.3890255 -0.7009034 -0.0062724627 0.13884702
0.036980942 -0.64406574 -0.9835818 0.1531331 -0.010244378 -1.8304037 0.06346586 0.34273037
0.036958423 0.61236644 0.72596186 0.19803835 3.6173596 1.4218062 -0.602114 0.30711314
0.9985054 0.887658 0.36296687 -0.22091095 0.31473538 0.39557245 0.09656984 0.32226565
0.0785997 1.3130705 -0.32814133 0.066374205 -0.5718536 0.19414325 -0.36113003 0.48736197
0.4530311 0.0012428511 0.76014346 1.3246163 -1.1042393 -1.5840456 -0.44678986 -0.029926999
2.186841 0.7547967 -0.2041401 0.58990324 0.0075560533 0.20921434 0.8549217 -0.33900434
0.040425766 0.38809955 0.4660864 0.4914591 0.29630864 0.08165271 0.0057347 0.35797435
0.2660074 0.9373427 -0.07456977 -0.14115806 -1.0472515 -0.97807044 0.24850714 0.2880583
-0.10849674 0.009273939 0.02300931 -0.33569065 -2.6022856 0.14732096 -2.6312597 -0.055696737
0.26460418 0.7113635 0.015023917 -0.3192365 0.26455396 0.26233456 0.21045196 1.3956234
1.5827338 -0.14717364 -0.46218535 2.5685263 -5.235503e-05 -0.37251058 0.44896916 0.12936226
3.2486026 -1.0613987 -0.08232306 -0.07517359 -0.20864855 -0.46901953 0.82579494 1.146252
0.15958111 0.51836 -0.24681218 -0.513407 -0.30746388 -1.8762317 1.1176339 -0.57552767
-0.5853016 0.3171337 0.84226245 2.6283958 0.77407444 1.0838802 2.7764366 -0.5021153
00000000: 01b4 f53f 6b92 743f ec84 f53f 0d3e 103f
00000010: b384 e03e a420 833f 8d85 2f3f a4f8 123e
00000020: 961a 05be acb4 a33e 9a1e b43f 894c 263e
00000030: f728 c73e 019e a13e c3f2 83bb 0322 283f
00000040: 0396 ac3e 8396 d4be 0d68 e1bf 7b41 01be
00000050: bc15 6dbf 757a 863d afed a63e 0597 bf3d
00000060: 4af0 a73e d533 14bf d6e3 ad3d a3bc abbd
00000070: 8aff 9bbb 3857 babe ab15 f3be 2c1e 11bf
00000080: 12fa 1740 badb 53bf e60a 82be 38a3 4bbe
00000090: 56df 1dbf 69e5 2a3e 9ed9 64be 033f 0e3f
000000a0: 3774 8a3d 4a1b c3bf b33a f23c fe56 85be
000000b0: b660 343e 5ac5 0cbf 384d 7fbe e03a a03e
000000c0: e38c 433f c364 afbd b963 a33e ef08 d63e
000000d0: ac84 9cbd 1cce e6bd 69cb 713f b2dc 113e
000000e0: b34a 35bd 6ace 7fbe 76ec 143d 9ca1 2a3e
000000f0: bdc2 c13e e29e 44c0 b493 99be c888 3840
00000100: 2be7 c0bd 1bff 6140 f81f 223f 49b5 fdbf
00000110: 0fd5 4a40 be25 12bf 2730 563e 90d8 933e
00000120: 5979 043e a0bf ef3e 0ab0 b53e 01c6 b1be
00000130: f0c2 1840 4008 763d a563 1abf 37f2 c43f
00000140: a926 5bbf f29d 1abf ff26 1abf 9855 1abf
00000150: 193c 1f3e 082a 1abf 6ad7 9e3e 00f0 afba
00000160: bd24 193e 71f6 2d3f 11de 87be 3f48 17bf
00000170: b80a 4e3f 7662 2cbe 2df3 4d3e 1b7d c7be
00000180: 6f0b 8ebd 1127 81bf a14f 72bf eabf 973f
00000190: cfa5 c73f 755a 4e3f 6d8a 513f 3e25 1abf
000001a0: aee1 523e 099d e3bf 8ac4 ab3f ffa3 68bf
000001b0: 5a04 563e 52f2 3abe 0e60 973c 3ad3 0b3d
000001c0: b9c9 f8be aacb 83bf 3ae4 72be fe26 743f
000001d0: d146 3bbf c53a cfbb f314 fb3d 12af 7fbe
000001e0: dda7 df3d d79b f33e cdfb 3b3f c120 ba3e
000001f0: 8966 e7be 29cd d0be ffd0 46bf bfea 0f3f
00000200: 876f 0dbf 3596 cf3e 7538 7cbd 69c2 1b40
00000210: 64d2 073f 4934 463e 9893 45bf 7491 2dbf
00000220: 2bf0 2fbe 2f25 d33e 3d93 cc3e 67f9 c63e
00000230: 5a2e c73e 686e 33bf 3b89 cdbb ea2d 0e3e
00000240: 5479 173d 7ee1 24bf 04cc 7bbf ecce 1c3e
00000250: 09d8 27bc ab4a eabf 64fa 813d 5b7a af3e
00000260: b761 173d 0cc4 1c3f a3d8 393f 91ca 4a3e
00000270: d282 6740 bffd b53f 2524 1abf ef3d 9d3e
00000280: 0d9e 7f3f 8e3d 633f cbd6 b93e 7b36 62be
00000290: ff24 a13e 7988 ca3e 69c6 c53d 0100 a53e
000002a0: e1f8 a03d b212 a83f 2402 a8be 33ef 873d
000002b0: ff64 12bf 7dcd 463e 09e6 b8be 8287 f93e
000002c0: b1f3 e73e 2ae7 a23a c398 423f 078d a93f
000002d0: b757 8dbf 02c2 cabf a4c1 e4be 7729 f5bc
000002e0: 34f5 0b40 5b3a 413f 1a0a 51be e603 173f
000002f0: c598 f73b 493c 563e 26dc 5a3f fa91 adbe
00000300: 7d95 253d fcb4 c63e e0a2 ee3e 87a0 fb3e
00000310: c4b5 973e 8939 a73d 26ea bb3b 6a48 b73e
00000320: 1f32 883e b1f5 6f3f 09b8 98bd bd8b 10be
00000330: 560c 86bf d362 7abf a878 7e3e 617c 933e
00000340: 8a33 debd b8f1 173c 057e bc3c a5df abbe
00000350: d98b 26c0 4edb 163e 8f66 28c0 4322 64bd
00000360: 337a 873e eb1b 363f e026 763c f772 a3be
00000370: 9e73 873e b750 863e b880 573e caa3 b23f
00000380: 0597 ca3f b0b4 16be 8fa3 ecbe bc62 2440
00000390: c997 5bb8 b5b9 bebe 49df e53e 8a77 043e
000003a0: 1be9 4f40 eadb 87bf fe98 a8bd 9cf4 99bd
000003b0: f7a7 55be 5423 f0be 4c67 533f 63b8 923f
000003c0: 3b69 233e 3eb3 043f 55bc 7cbe a46e 03bf
000003d0: e86b 9dbe 5c28 f0bf a10e 8f3f c855 13bf
000003e0: 53d6 15bf 595f a23e 839e 573f a337 2840
000003f0: be29 463f 96bc 8a3f 23b1 3140 a18a 00bf

l1.bias f4 [8]
0.38856706 0.30548316 0.5496558 0.44923228 0.5121343 0.7072012 0.9626148 0.3273662
00000000: 43f2 c63e 4a68 9c3e 3eb6 0c3f c601 e63e
00000010: 3c1b 033f 230b 353f ec6d 763f 8b9c a73e

l2.weight f4 [8, 8]
0.7144821 -0.6816443 -0.97593504 1.193359 -0.43705904 1.5309892 0.46622285 -0.02290303
2.0235875 0.7516849 -1.2126625 0.8084696 -0.84397817 -0.39134318 -0.036652602 0.39116615
0.22916846 1.0823079 1.0423855 0.70170504 2.0641875 0.027965134 -0.7004474 2.0142546
-0.08028713 -0.07068801 8.356571e-05 -0.20298937 -0.22017707 0.0655421 -0.07164061 0.096939266
0.18791047 0.85784614 1.3581338 -0.39348146 -1.8118849 -1.2306818 2.426162 -1.5428028
-0.45303336 -1.9443058 -1.6360757 0.92615086 0.48251194 3.6484745 -0.2263658 -0.67299855
-0.3506694 -1.2052317 0.88672346 1.7118913 -0.8920722 0.8315433 -1.318293 0.53726757
0.012828378 -0.23995051 -0.2111897 0.43862152 -0.47128484 -0.077210896 -0.05792281 0.24354105
00000000: 4de8 363f 3e80 2ebf e1d6 79bf fdbf 983f
00000010: 34c6 dfbe 74f7 c33f c3b4 ee3e 239f bbbc
00000020: 7582 0140 6c6e 403f 8638 9bbf ddf7 4e3f
00000030: f40e 58bf 225e c8be 0a21 16bd ee46 c83e
00000040: 23ab 6a3e 1189 8a3f e36c 853f f1a2 333f
00000050: a61b 0440 2317 e53c 8550 33bf 8ce9 0040
00000060: 946d a4bd e0c4 90bd 0040 af38 72dc 4fbe
00000070: 1976 61be f03a 863d 50b8 92bd 1888 c63d
00000080: 9a6b 403e ce9b 5b3f 54d7 ad3f 6776 c9be
00000090: d8eb e7bf fb86 9dbf 3d46 1b40 907a c5bf
000000a0: fdf3 e7be 03df f8bf ee6a d1bf 3918 6d3f
000000b0: ce0b f73e 9b80 6940 70cc 67be a249 2cbf
000000c0: f18a b3be 0845 9abf 4f00 633f 411f db3f
000000d0: d85e 64bf 06e0 543f d3bd a8bf 5e8a 093f
000000e0: 1e2e 523c 96b5 75be 1d42 58be 0093 e03e
000000f0: 3f4c f1be bf20 9ebd 7840 6dbd d362 793e

l2.bias f4 [8]
0.20866123 -1.2699692 -0.36302453 -0.2615387 0.37305528 1.2729243 -0.17385013 -0.36962005
00000000: 4aab 553e 5a8e a2bf 5ade b9be 67e8 85be
00000010: 1a01 bf3e 2fef a23f c505 32be d73e bdbe

l3.weight f4 [17, 8]
-1.9954337 -4.263218 -0.6728154 0.10462433 -1.5440798 -1.8767365 1.765278 1.0875868
-1.612163 -4.013361 0.6552432 0.0011898875 -4.8262014 -3.9494066 -6.9594564 0.21975541
0.6420403 -0.5073769 -4.6886516 -0.27995527 -1.5459987 0.04775544 1.2965285 1.4541839
-0.22600062 -1.1576772 -1.0243604 0.035987854 -5.6608644 1.8683058 0.9003287 -5.945578
0.027363004 0.10749223 -1.5054084 0.072488874 -9.36029 -1.2809291 2.8486762 3.4550574
-0.5119717 -3.5422316 -2.1133847 -0.27266937 -1.3523514 -1.1673584 2.3549223 1.1322466
1.6890509 1.1747508 -8.390971 0.008088559 -0.08041492 -2.5778952 -6.745798 -1.6962767
1.1897104 -4.9887223 -7.035564 -0.34241834 -1.9884546 2.0158944 0.38299203 -1.0247602
-3.7756133 -6.310739 -0.27924383 -0.2338228 -5.692006 1.4920154 0.77283424 -0.897491
-2.2320967 -7.430408 0.034677092 0.30369857 -8.131101 1.9827719 -9.407188 -0.07271172
-0.7819116 0.31037587 0.22381693 0.16384497 0.23414256 -1.8093324 -0.42194852 -0.93862104
-3.8933363 -4.959399 -2.1180568 0.15746936 0.5400743 -4.391315 2.7568781 -0.810113
-0.33087423 0.30399534 -0.028264834 0.25790283 0.21940452 -2.1471937 -1.0492351 1.0694406
-1.2728792 -9.021274 -1.7569908 0.0055468976 0.85652304 2.4995131 -7.7866445 -1.6822189
0.19789188 -10.210107 -2.287658 -0.26998714 -5.920832 1.7842691 1.9045264 -0.4737774
1.0135909 -3.8099754 -5.4391084 -0.045055956 -7.1262317 1.1505574 3.6597273 0.41598505
-5.059161 -0.59462315 -6.3893313 0.18514267 1.578527 -3.7406342 -5.637315 -0.85015863
00000000: 5f6a ffbf 486c 88c0 a13d 2cbf 4845 d63d
00000010: 68a4 c5bf e738 f0bf a1f4 e13f 0b36 8b3f
00000020: 5b5b cebf 746d 80c0 05be 273f 00f6 9b3a
00000030: 3e70 9ac0 14c3 7cc0 deb3 dec0 9007 613e
00000040: c15c 243f 74e3 01bf 6f09 96c0 4c56 8fbe
00000050: 49e3 c5bf 359b 433d a5f4 a53f b322 ba3f
00000060: b56c 67be c42e 94bf 3e1e 83bf 0068 133d
00000070: cd25 b5c0 a524 ef3f f17b 663f 2d42 bec0
00000080: 6128 e03c e324 dc3d 39b1 c0bf 0c75 943d
00000090: bfc3 15c1 7cf5 a3bf b650 3640 a91f 5d40
000000a0: 9410 03bf ecb3 62c0 b241 07c0 529b 8bbe
000000b0: da19 adbf 006c 95bf 0cb7 1640 75ed 903f
000000c0: d232 d83f 3c5e 963f 6b41 06c1 e085 043c
000000d0: 94b0 a4bd 3cfc 24c0 94dd d7c0 981f d9bf
000000e0: 6e48 983f 9da3 9fc0 5723 e1c0 7551 afbe
000000f0: ae85 febf 6a04 0140 8817 c43e 582b 83bf
00000100: a6a3 71c0 93f1 c9c0 0cf9 8ebe 3e6f 6fbe
00000110: ea24 b6c0 5cfa be3f 77d8 453f f8c1 65bf
00000120: acda 0ec0 e7c5 edc0 9109 0e3d 617e 9b3e
00000130: fd18 02c1 78cb fd3f d883 16c1 e2e9 94bd
00000140: 5c2b 48bf 96e9 9e3e 4430 653e fac6 273e
00000150: 11c3 6f3e 3498 e7bf a309 d8be 7849 70bf
00000160: 6c2c 79c0 66b3 9ec0 3e8e 07c0 a63f 213e
00000170: 4f42 0a3f a785 8cc0 b170 3040 9163 4fbf
00000180: 5968 a9be 47a5 9b3e a78b e7bc d70b 843e
00000190: 94ab 603e 9f6b 09c0 564d 86bf 6ee3 883f
000001a0: b5ed a2bf 2357 10c1 13e5 e0bf c0c2 b53b
000001b0: 1845 5b3f 06f8 1f40 312c f9c0 f352 d7bf
000001c0: 2ba4 4a3e 995c 23c1 fd68 12c0 c13b 8abe
000001d0: 7577 bdc0 ee62 e43f 85c7 f33f f492 f2be
000001e0: 59bd 813f a3d6 73c0 2d0d aec0 988c 38bd
000001f0: 170a e4c0 7745 933f f938 6a40 fefb d43e
00000200: a6e4 a1c0 3939 18bf 6775 ccc0 0a96 3d3e
00000210: 2c0d ca3f 8d66 6fc0 e264 b4c0 ffa3 59bf

l3.bias f4 [17]
-2.1021605 0.03052167 -5.576323 -0.84032 -4.5361853 -2.0623906 -0.06709757 -0.9271608
-1.5982097 -2.548805 -0.19145152 0.23122016 -0.20107928 1.7742065 -4.579806 -1.2468693
0.476812
00000000: cc89 06c0 9508 fa3c 3d71 b2c0 361f 57bf
00000010: 6e28 91c0 35fe 03c0 736a 89bd 695a 6dbf
00000020: 2392 ccbf 9f1f 23c0 de0b 44be fac4 6c3e
00000030: bae7 4dbe 3319 e33f c58d 92c0 6a99 9fbf
00000040: b420 f43e
